…
wandb: Currently logged in as: lassesofus (mlogs23) to https://api.wandb.ai. Use `wandb login --relogin` to force relogin
wandb: setting up run o3q5dvkf
wandb: Tracking run with wandb version 0.22.2
wandb: Run data is saved locally in /home/s185927/thesis/vjepa2/wandb/run-20251221_175412-o3q5dvkf
wandb: Run `wandb offline` to turn off syncing.
wandb: Syncing run x_axis_finetune_025pct
wandb: ⭐️ View project at https://wandb.ai/mlogs23/vjepa2-training
wandb: 🚀 View run at https://wandb.ai/mlogs23/vjepa2-training/runs/o3q5dvkf
[INFO    ][2025-12-21 17:54:25][root                ][init_video_model         ] VisionTransformer(
  (patch_embed): PatchEmbed3D(
    (proj): Conv3d(3, 1408, kernel_size=(2, 16, 16), stride=(2, 16, 16))
  )
  (blocks): ModuleList(
    (0-39): 40 x Block(
      (norm1): LayerNorm((1408,), eps=1e-06, elementwise_affine=True)
      (attn): RoPEAttention(
        (qkv): Linear(in_features=1408, out_features=4224, bias=True)
        (attn_drop): Dropout(p=0.0, inplace=False)
        (proj): Linear(in_features=1408, out_features=1408, bias=True)
        (proj_drop): Dropout(p=0.0, inplace=False)
      )
      (drop_path): Identity()
      (norm2): LayerNorm((1408,), eps=1e-06, elementwise_affine=True)
      (mlp): MLP(
        (fc1): Linear(in_features=1408, out_features=6144, bias=True)
        (act): GELU(approximate='none')
        (fc2): Linear(in_features=6144, out_features=1408, bias=True)
        (drop): Dropout(p=0.0, inplace=False)
      )
    )
  )
  (norm): LayerNorm((1408,), eps=1e-06, elementwise_affine=True)
)
[INFO    ][2025-12-21 17:54:25][root                ][init_video_model         ] VisionTransformerPredictorAC(
  (predictor_embed): Linear(in_features=1408, out_features=1024, bias=True)
  (action_encoder): Linear(in_features=7, out_features=1024, bias=True)
  (state_encoder): Linear(in_features=7, out_features=1024, bias=True)
  (extrinsics_encoder): Linear(in_features=6, out_features=1024, bias=True)
  (predictor_blocks): ModuleList(
    (0-23): 24 x ACBlock(
      (norm1): LayerNorm((1024,), eps=1e-06, elementwise_affine=True)
      (attn): ACRoPEAttention(
        (qkv): Linear(in_features=1024, out_features=3072, bias=True)
        (attn_drop): Dropout(p=0.0, inplace=False)
        (proj): Linear(in_features=1024, out_features=1024, bias=True)
        (proj_drop): Dropout(p=0.0, inplace=False)
      )
      (drop_path): Identity()
      (norm2): LayerNorm((1024,), eps=1e-06, elementwise_affine=True)
      (mlp): MLP(
        (fc1): Linear(in_features=1024, out_features=4096, bias=True)
        (act): GELU(approximate='none')
        (fc2): Linear(in_features=4096, out_features=1024, bias=True)
        (drop): Dropout(p=0.0, inplace=False)
      )
    )
  )
  (predictor_norm): LayerNorm((1024,), eps=1e-06, elementwise_affine=True)
  (predictor_proj): Linear(in_features=1024, out_features=1408, bias=True)
)
[INFO    ][2025-12-21 17:54:25][root                ][init_video_model         ] Encoder number of parameters: 1012173952
[INFO    ][2025-12-21 17:54:25][root                ][init_video_model         ] Predictor number of parameters: 305220992
[INFO    ][2025-12-21 17:54:25][root                ][init_data                ] VideoDataset unsupervised data loader created
…
