…
[INFO    ][2025-11-24 12:23:54][app.vjepa_droid.train_with_early_stopping][main_with_early_stopping ] Early stopping enabled: patience=50, min_delta=0.001, val_freq=5
[INFO    ][2025-11-24 12:23:54][app.vjepa_droid.train_with_early_stopping][main_with_early_stopping ] which_dtype='bfloat16'
[INFO    ][2025-11-24 12:23:54][root                ][init_distributed         ] SLURM vars not set (distributed training not available)
[INFO    ][2025-11-24 12:23:54][app.vjepa_droid.train_with_early_stopping][main_with_early_stopping ] Initialized (rank/world-size) 0/1
[INFO    ][2025-11-24 12:24:06][root                ][init_video_model         ] VisionTransformer(
  (patch_embed): PatchEmbed3D(
    (proj): Conv3d(3, 1408, kernel_size=(2, 16, 16), stride=(2, 16, 16))
  )
  (blocks): ModuleList(
    (0-39): 40 x Block(
      (norm1): LayerNorm((1408,), eps=1e-06, elementwise_affine=True)
      (attn): RoPEAttention(
        (qkv): Linear(in_features=1408, out_features=4224, bias=True)
        (attn_drop): Dropout(p=0.0, inplace=False)
        (proj): Linear(in_features=1408, out_features=1408, bias=True)
        (proj_drop): Dropout(p=0.0, inplace=False)
      )
      (drop_path): Identity()
      (norm2): LayerNorm((1408,), eps=1e-06, elementwise_affine=True)
      (mlp): MLP(
        (fc1): Linear(in_features=1408, out_features=6144, bias=True)
        (act): GELU(approximate='none')
        (fc2): Linear(in_features=6144, out_features=1408, bias=True)
        (drop): Dropout(p=0.0, inplace=False)
      )
    )
  )
  (norm): LayerNorm((1408,), eps=1e-06, elementwise_affine=True)
)
[INFO    ][2025-11-24 12:24:06][root                ][init_video_model         ] VisionTransformerPredictorAC(
  (predictor_embed): Linear(in_features=1408, out_features=1024, bias=True)
  (action_encoder): Linear(in_features=7, out_features=1024, bias=True)
  (state_encoder): Linear(in_features=7, out_features=1024, bias=True)
  (extrinsics_encoder): Linear(in_features=6, out_features=1024, bias=True)
  (predictor_blocks): ModuleList(
    (0-23): 24 x ACBlock(
      (norm1): LayerNorm((1024,), eps=1e-06, elementwise_affine=True)
      (attn): ACRoPEAttention(
        (qkv): Linear(in_features=1024, out_features=3072, bias=True)
        (attn_drop): Dropout(p=0.0, inplace=False)
        (proj): Linear(in_features=1024, out_features=1024, bias=True)
        (proj_drop): Dropout(p=0.0, inplace=False)
      )
      (drop_path): Identity()
      (norm2): LayerNorm((1024,), eps=1e-06, elementwise_affine=True)
      (mlp): MLP(
        (fc1): Linear(in_features=1024, out_features=4096, bias=True)
        (act): GELU(approximate='none')
        (fc2): Linear(in_features=4096, out_features=1024, bias=True)
        (drop): Dropout(p=0.0, inplace=False)
      )
    )
  )
  (predictor_norm): LayerNorm((1024,), eps=1e-06, elementwise_affine=True)
  (predictor_proj): Linear(in_features=1024, out_features=1408, bias=True)
)
[INFO    ][2025-11-24 12:24:06][root                ][init_video_model         ] Encoder number of parameters: 1012173952
[INFO    ][2025-11-24 12:24:06][root                ][init_video_model         ] Predictor number of parameters: 305220992
[INFO    ][2025-11-24 12:24:06][root                ][init_data                ] VideoDataset unsupervised data loader created
…
